…
[2024-05-21 23:36:24,585][    INFO][__main__] Moving model to device = device(type='cuda') ... (load_model.py:93)
[2024-05-21 23:36:24,853][    INFO][__main__] Moving model to device = device(type='cuda') DONE (load_model.py:103)
[2024-05-21 23:36:24,854][    INFO][__main__] device:
cuda (load_model.py:106)
[2024-05-21 23:36:24,854][    INFO][__main__] type(model) = <class 'transformers.models.roberta.modeling_roberta.RobertaForMaskedLM'> (log_model_info.py:44)
[2024-05-21 23:36:24,855][    INFO][__main__] model:
RobertaForMaskedLM(
  (roberta): RobertaModel(
    (embeddings): RobertaEmbeddings(
      (word_embeddings): Embedding(50265, 768, padding_idx=1)
      (position_embeddings): Embedding(514, 768, padding_idx=1)
      (token_type_embeddings): Embedding(1, 768)
      (LayerNorm): LayerNorm((768,), eps=1e-05, elementwise_affine=True)
      (dropout): Dropout(p=0.1, inplace=False)
    )
    (encoder): RobertaEncoder(
      (layer): ModuleList(
        (0-11): 12 x RobertaLayer(
          (attention): RobertaAttention(
            (self): RobertaSelfAttention(
              (query): Linear(in_features=768, out_features=768, bias=True)
              (key): Linear(in_features=768, out_features=768, bias=True)
              (value): Linear(in_features=768, out_features=768, bias=True)
              (dropout): Dropout(p=0.1, inplace=False)
            )
            (output): RobertaSelfOutput(
              (dense): Linear(in_features=768, out_features=768, bias=True)
              (LayerNorm): LayerNorm((768,), eps=1e-05, elementwise_affine=True)
              (dropout): Dropout(p=0.1, inplace=False)
            )
          )
          (intermediate): RobertaIntermediate(
            (dense): Linear(in_features=768, out_features=3072, bias=True)
            (intermediate_act_fn): GELUActivation()
          )
          (output): RobertaOutput(
            (dense): Linear(in_features=3072, out_features=768, bias=True)
            (LayerNorm): LayerNorm((768,), eps=1e-05, elementwise_affine=True)
            (dropout): Dropout(p=0.1, inplace=False)
          )
        )
      )
    )
  )
  (lm_head): RobertaLMHead(
    (dense): Linear(in_features=768, out_features=768, bias=True)
    (layer_norm): LayerNorm((768,), eps=1e-05, elementwise_affine=True)
    (decoder): Linear(in_features=768, out_features=50265, bias=True)
  )
) (log_model_info.py:47)
[2024-05-21 23:36:24,856][    INFO][__main__] model.config:
RobertaConfig {
  "_name_or_path": "$HOME/git-source/Topo_LLM/data/models/finetuned_models/data-multiwoz21_split-train_ctxt-dataset_entry_samples--1/model-roberta-base/ftm-standard/lora-None/gradmod-do_nothing_target-freeze-[]/lr-5e-05_lr_scheduler_type-linear_wd-0.01/bs-train-32/ep-5/model_files/checkpoint-8500",
…
